…
function. Check out the printed model to see how the generator object is
structured.



.. code-block:: default


    # Create the generator
    netG = Generator(ngpu).to(device)

    # Handle multi-gpu if desired
    if (device.type == 'cuda') and (ngpu > 1):
        netG = nn.DataParallel(netG, list(range(ngpu)))

    # Apply the weights_init function to randomly initialize all weights
    #  to mean=0, stdev=0.02.
    netG.apply(weights_init)

    # Print the model
    print(netG)






.. rst-class:: sphx-glr-script-out

 Out:

 .. code-block:: none

    Generator(
      (main): Sequential(
        (0): ConvTranspose2d(100, 512, kernel_size=(4, 4), stride=(1, 1), bias=False)
        (1): BatchNorm2d(512, eps=1e-05, momentum=0.1, affine=True, track_running_stats=True)
        (2): ReLU(inplace=True)
        (3): ConvTranspose2d(512, 256, kernel_size=(4, 4), stride=(2, 2), padding=(1, 1), bias=False)
        (4): BatchNorm2d(256, eps=1e-05, momentum=0.1, affine=True, track_running_stats=True)
        (5): ReLU(inplace=True)
        (6): ConvTranspose2d(256, 128, kernel_size=(4, 4), stride=(2, 2), padding=(1, 1), bias=False)
        (7): BatchNorm2d(128, eps=1e-05, momentum=0.1, affine=True, track_running_stats=True)
        (8): ReLU(inplace=True)
        (9): ConvTranspose2d(128, 64, kernel_size=(4, 4), stride=(2, 2), padding=(1, 1), bias=False)
        (10): BatchNorm2d(64, eps=1e-05, momentum=0.1, affine=True, track_running_stats=True)
        (11): ReLU(inplace=True)
        (12): ConvTranspose2d(64, 3, kernel_size=(4, 4), stride=(2, 2), padding=(1, 1), bias=False)
        (13): Tanh()
      )
    )


Discriminator
~~~~~~~~~~~~~

As mentioned, the discriminator, :math:`D`, is a binary classification
network that takes an image as input and outputs a scalar probability
that the input image is real (as opposed to fake). Here, :math:`D` takes
a 3x64x64 input image, processes it through a series of Conv2d,
…
``weights_init`` function, and print the model’s structure.



.. code-block:: default


    # Create the Discriminator
    netD = Discriminator(ngpu).to(device)

    # Handle multi-gpu if desired
    if (device.type == 'cuda') and (ngpu > 1):
        netD = nn.DataParallel(netD, list(range(ngpu)))
    
    # Apply the weights_init function to randomly initialize all weights
    #  to mean=0, stdev=0.2.
    netD.apply(weights_init)

    # Print the model
    print(netD)






.. rst-class:: sphx-glr-script-out

 Out:

 .. code-block:: none

    Discriminator(
      (main): Sequential(
        (0): Conv2d(3, 64, kernel_size=(4, 4), stride=(2, 2), padding=(1, 1), bias=False)
        (1): LeakyReLU(negative_slope=0.2, inplace=True)
        (2): Conv2d(64, 128, kernel_size=(4, 4), stride=(2, 2), padding=(1, 1), bias=False)
        (3): BatchNorm2d(128, eps=1e-05, momentum=0.1, affine=True, track_running_stats=True)
        (4): LeakyReLU(negative_slope=0.2, inplace=True)
        (5): Conv2d(128, 256, kernel_size=(4, 4), stride=(2, 2), padding=(1, 1), bias=False)
        (6): BatchNorm2d(256, eps=1e-05, momentum=0.1, affine=True, track_running_stats=True)
        (7): LeakyReLU(negative_slope=0.2, inplace=True)
        (8): Conv2d(256, 512, kernel_size=(4, 4), stride=(2, 2), padding=(1, 1), bias=False)
        (9): BatchNorm2d(512, eps=1e-05, momentum=0.1, affine=True, track_running_stats=True)
        (10): LeakyReLU(negative_slope=0.2, inplace=True)
        (11): Conv2d(512, 1, kernel_size=(4, 4), stride=(1, 1), bias=False)
        (12): Sigmoid()
      )
    )


Loss Functions and Optimizers
~~~~~~~~~~~~~~~~~~~~~~~~~~~~~

With :math:`D` and :math:`G` setup, we can specify how they learn
through the loss functions and optimizers. We will use the Binary Cross
Entropy loss
(`BCELoss <https://pytorch.org/docs/stable/nn.html#torch.nn.BCELoss>`__)
function which is defined in PyTorch as:
…
